…
    MyRandomResizedCrop(size=[128, 160, 192, 224], scale=(0.08, 1.0), ratio=(0.75, 1.3333), interpolation=PIL.Image.BILINEAR)
    RandomHorizontalFlip(p=0.5)
    ColorJitter(brightness=[0.8745098039215686, 1.1254901960784314], contrast=None, saturation=[0.5, 1.5], hue=None)
    ToTensor()
    Normalize(mean=[0.485, 0.456, 0.406], std=[0.229, 0.224, 0.225])
)
Compose(
    Resize(size=256, interpolation=PIL.Image.BILINEAR)
    CenterCrop(size=(224, 224))
    ToTensor()
    Normalize(mean=[0.485, 0.456, 0.406], std=[0.229, 0.224, 0.225])
)
ResNets(
  (input_stem): ModuleList(
    (0): ConvLayer(
      (conv): Conv2d(3, 24, kernel_size=(3, 3), stride=(2, 2), padding=(1, 1), bias=False)
      (bn): BatchNorm2d(24, eps=1e-05, momentum=0.1, affine=True, track_running_stats=True)
      (act): ReLU(inplace=True)
    )
    (1): ConvLayer(
      (conv): Conv2d(24, 40, kernel_size=(3, 3), stride=(1, 1), padding=(1, 1), bias=False)
      (bn): BatchNorm2d(40, eps=1e-05, momentum=0.1, affine=True, track_running_stats=True)
      (act): ReLU(inplace=True)
    )
  )
  (max_pooling): MaxPool2d(kernel_size=3, stride=2, padding=1, dilation=1, ceil_mode=False)
  (blocks): ModuleList(
    (0): ResNetBottleneckBlock(
      (conv1): Sequential(
        (conv): Conv2d(40, 32, kernel_size=(1, 1), stride=(1, 1), bias=False)
        (bn): BatchNorm2d(32, eps=1e-05, momentum=0.1, affine=True, track_running_stats=True)
        (act): ReLU(inplace=True)
      )
      (conv2): Sequential(
        (conv): Conv2d(32, 32, kernel_size=(3, 3), stride=(1, 1), padding=(1, 1), bias=False)
        (bn): BatchNorm2d(32, eps=1e-05, momentum=0.1, affine=True, track_running_stats=True)
        (act): ReLU(inplace=True)
      )
      (conv3): Sequential(
        (conv): Conv2d(32, 168, kernel_size=(1, 1), stride=(1, 1), bias=False)
        (bn): BatchNorm2d(168, eps=1e-05, momentum=0.1, affine=True, track_running_stats=True)
      )
      (downsample): Sequential(
        (avg_pool): AvgPool2d(kernel_size=1, stride=1, padding=0)
        (conv): Conv2d(40, 168, kernel_size=(1, 1), stride=(1, 1), bias=False)
        (bn): BatchNorm2d(168, eps=1e-05, momentum=0.1, affine=True, track_running_stats=True)
      )
      (final_act): ReLU(inplace=True)
    )
    (1): ResNetBottleneckBlock(
      (conv1): Sequential(
        (conv): Conv2d(168, 32, kernel_size=(1, 1), stride=(1, 1), bias=False)
        (bn): BatchNorm2d(32, eps=1e-05, momentum=0.1, affine=True, track_running_stats=True)
        (act): ReLU(inplace=True)
      )
      (conv2): Sequential(
        (conv): Conv2d(32, 32, kernel_size=(3, 3), stride=(1, 1), padding=(1, 1), bias=False)
        (bn): BatchNorm2d(32, eps=1e-05, momentum=0.1, affine=True, track_running_stats=True)
        (act): ReLU(inplace=True)
      )
      (conv3): Sequential(
        (conv): Conv2d(32, 168, kernel_size=(1, 1), stride=(1, 1), bias=False)
        (bn): BatchNorm2d(168, eps=1e-05, momentum=0.1, affine=True, track_running_stats=True)
      )
      (downsample): IdentityLayer()
      (final_act): ReLU(inplace=True)
    )
    (2): ResNetBottleneckBlock(
      (conv1): Sequential(
        (conv): Conv2d(168, 64, kernel_size=(1, 1), stride=(1, 1), bias=False)
        (bn): BatchNorm2d(64, eps=1e-05, momentum=0.1, affine=True, track_running_stats=True)
        (act): ReLU(inplace=True)
      )
      (conv2): Sequential(
        (conv): Conv2d(64, 64, kernel_size=(3, 3), stride=(2, 2), padding=(1, 1), bias=False)
        (bn): BatchNorm2d(64, eps=1e-05, momentum=0.1, affine=True, track_running_stats=True)
        (act): ReLU(inplace=True)
      )
      (conv3): Sequential(
        (conv): Conv2d(64, 336, kernel_size=(1, 1), stride=(1, 1), bias=False)
        (bn): BatchNorm2d(336, eps=1e-05, momentum=0.1, affine=True, track_running_stats=True)
      )
      (downsample): Sequential(
        (avg_pool): AvgPool2d(kernel_size=2, stride=2, padding=0)
        (conv): Conv2d(168, 336, kernel_size=(1, 1), stride=(1, 1), bias=False)
        (bn): BatchNorm2d(336, eps=1e-05, momentum=0.1, affine=True, track_running_stats=True)
      )
      (final_act): ReLU(inplace=True)
    )
    (3): ResNetBottleneckBlock(
      (conv1): Sequential(
        (conv): Conv2d(336, 64, kernel_size=(1, 1), stride=(1, 1), bias=False)
        (bn): BatchNorm2d(64, eps=1e-05, momentum=0.1, affine=True, track_running_stats=True)
        (act): ReLU(inplace=True)
      )
      (conv2): Sequential(
        (conv): Conv2d(64, 64, kernel_size=(3, 3), stride=(1, 1), padding=(1, 1), bias=False)
        (bn): BatchNorm2d(64, eps=1e-05, momentum=0.1, affine=True, track_running_stats=True)
        (act): ReLU(inplace=True)
      )
      (conv3): Sequential(
        (conv): Conv2d(64, 336, kernel_size=(1, 1), stride=(1, 1), bias=False)
        (bn): BatchNorm2d(336, eps=1e-05, momentum=0.1, affine=True, track_running_stats=True)
      )
      (downsample): IdentityLayer()
      (final_act): ReLU(inplace=True)
    )
    (4): ResNetBottleneckBlock(
      (conv1): Sequential(
        (conv): Conv2d(336, 136, kernel_size=(1, 1), stride=(1, 1), bias=False)
        (bn): BatchNorm2d(136, eps=1e-05, momentum=0.1, affine=True, track_running_stats=True)
        (act): ReLU(inplace=True)
      )
      (conv2): Sequential(
        (conv): Conv2d(136, 136, kernel_size=(3, 3), stride=(2, 2), padding=(1, 1), bias=False)
        (bn): BatchNorm2d(136, eps=1e-05, momentum=0.1, affine=True, track_running_stats=True)
        (act): ReLU(inplace=True)
      )
      (conv3): Sequential(
        (conv): Conv2d(136, 664, kernel_size=(1, 1), stride=(1, 1), bias=False)
        (bn): BatchNorm2d(664, eps=1e-05, momentum=0.1, affine=True, track_running_stats=True)
      )
      (downsample): Sequential(
        (avg_pool): AvgPool2d(kernel_size=2, stride=2, padding=0)
        (conv): Conv2d(336, 664, kernel_size=(1, 1), stride=(1, 1), bias=False)
        (bn): BatchNorm2d(664, eps=1e-05, momentum=0.1, affine=True, track_running_stats=True)
      )
      (final_act): ReLU(inplace=True)
    )
    (5): ResNetBottleneckBlock(
      (conv1): Sequential(
        (conv): Conv2d(664, 136, kernel_size=(1, 1), stride=(1, 1), bias=False)
        (bn): BatchNorm2d(136, eps=1e-05, momentum=0.1, affine=True, track_running_stats=True)
        (act): ReLU(inplace=True)
      )
      (conv2): Sequential(
        (conv): Conv2d(136, 136, kernel_size=(3, 3), stride=(1, 1), padding=(1, 1), bias=False)
        (bn): BatchNorm2d(136, eps=1e-05, momentum=0.1, affine=True, track_running_stats=True)
        (act): ReLU(inplace=True)
      )
      (conv3): Sequential(
        (conv): Conv2d(136, 664, kernel_size=(1, 1), stride=(1, 1), bias=False)
        (bn): BatchNorm2d(664, eps=1e-05, momentum=0.1, affine=True, track_running_stats=True)
      )
      (downsample): IdentityLayer()
      (final_act): ReLU(inplace=True)
    )
    (6): ResNetBottleneckBlock(
      (conv1): Sequential(
        (conv): Conv2d(664, 136, kernel_size=(1, 1), stride=(1, 1), bias=False)
        (bn): BatchNorm2d(136, eps=1e-05, momentum=0.1, affine=True, track_running_stats=True)
        (act): ReLU(inplace=True)
      )
      (conv2): Sequential(
        (conv): Conv2d(136, 136, kernel_size=(3, 3), stride=(1, 1), padding=(1, 1), bias=False)
        (bn): BatchNorm2d(136, eps=1e-05, momentum=0.1, affine=True, track_running_stats=True)
        (act): ReLU(inplace=True)
      )
      (conv3): Sequential(
        (conv): Conv2d(136, 664, kernel_size=(1, 1), stride=(1, 1), bias=False)
        (bn): BatchNorm2d(664, eps=1e-05, momentum=0.1, affine=True, track_running_stats=True)
      )
      (downsample): IdentityLayer()
      (final_act): ReLU(inplace=True)
    )
    (7): ResNetBottleneckBlock(
      (conv1): Sequential(
        (conv): Conv2d(664, 136, kernel_size=(1, 1), stride=(1, 1), bias=False)
        (bn): BatchNorm2d(136, eps=1e-05, momentum=0.1, affine=True, track_running_stats=True)
        (act): ReLU(inplace=True)
      )
      (conv2): Sequential(
        (conv): Conv2d(136, 136, kernel_size=(3, 3), stride=(1, 1), padding=(1, 1), bias=False)
        (bn): BatchNorm2d(136, eps=1e-05, momentum=0.1, affine=True, track_running_stats=True)
        (act): ReLU(inplace=True)
      )
      (conv3): Sequential(
        (conv): Conv2d(136, 664, kernel_size=(1, 1), stride=(1, 1), bias=False)
        (bn): BatchNorm2d(664, eps=1e-05, momentum=0.1, affine=True, track_running_stats=True)
      )
      (downsample): IdentityLayer()
      (final_act): ReLU(inplace=True)
    )
    (8): ResNetBottleneckBlock(
      (conv1): Sequential(
        (conv): Conv2d(664, 264, kernel_size=(1, 1), stride=(1, 1), bias=False)
        (bn): BatchNorm2d(264, eps=1e-05, momentum=0.1, affine=True, track_running_stats=True)
        (act): ReLU(inplace=True)
      )
      (conv2): Sequential(
        (conv): Conv2d(264, 264, kernel_size=(3, 3), stride=(2, 2), padding=(1, 1), bias=False)
        (bn): BatchNorm2d(264, eps=1e-05, momentum=0.1, affine=True, track_running_stats=True)
        (act): ReLU(inplace=True)
      )
      (conv3): Sequential(
        (conv): Conv2d(264, 1328, kernel_size=(1, 1), stride=(1, 1), bias=False)
        (bn): BatchNorm2d(1328, eps=1e-05, momentum=0.1, affine=True, track_running_stats=True)
      )
      (downsample): Sequential(
        (avg_pool): AvgPool2d(kernel_size=2, stride=2, padding=0)
        (conv): Conv2d(664, 1328, kernel_size=(1, 1), stride=(1, 1), bias=False)
        (bn): BatchNorm2d(1328, eps=1e-05, momentum=0.1, affine=True, track_running_stats=True)
      )
      (final_act): ReLU(inplace=True)
    )
    (9): ResNetBottleneckBlock(
      (conv1): Sequential(
        (conv): Conv2d(1328, 264, kernel_size=(1, 1), stride=(1, 1), bias=False)
        (bn): BatchNorm2d(264, eps=1e-05, momentum=0.1, affine=True, track_running_stats=True)
        (act): ReLU(inplace=True)
      )
      (conv2): Sequential(
        (conv): Conv2d(264, 264, kernel_size=(3, 3), stride=(1, 1), padding=(1, 1), bias=False)
        (bn): BatchNorm2d(264, eps=1e-05, momentum=0.1, affine=True, track_running_stats=True)
        (act): ReLU(inplace=True)
      )
      (conv3): Sequential(
        (conv): Conv2d(264, 1328, kernel_size=(1, 1), stride=(1, 1), bias=False)
        (bn): BatchNorm2d(1328, eps=1e-05, momentum=0.1, affine=True, track_running_stats=True)
      )
      (downsample): IdentityLayer()
      (final_act): ReLU(inplace=True)
    )
  )
  (global_avg_pool): MyGlobalAvgPool2d(keep_dim=False)
  (classifier): LinearLayer(
    (linear): Linear(in_features=1328, out_features=1000, bias=True)
  )
)
